…
loaded pretrained LPIPS loss from resources/models/lpips/vgg.pth
[12/09 10:24:13 d2.engine.defaults]: Model:
SAN(
  (criterion): Criterion SetCriterion
      matcher: Matcher HungarianMatcher
          cost_class: 2.0
          cost_mask: 5.0
          cost_dice: 5.0
      losses: ['labels', 'masks']
      weight_dict: {'loss_vq': 0.0, 'loss_ce': 2.0, 'loss_mask': 5.0, 'loss_dice': 5.0, 'loss_percept_layer1': 0.5, 'loss_percept_layer2': 1.0, 'loss_percept_layer3': 2.0}
      num_classes: 171
      eos_coef: 0.1
      num_points: 12544
      oversample_ratio: 3.0
      importance_sample_ratio: 0.75
  (query_proj): Linear(in_features=240, out_features=768, bias=False)
  (side_adapter_network): RegionwiseSideAdapterNetwork(
    (vit_model): VisionTransformer(
      (patch_embed): PatchEmbed(
        (proj): Conv2d(3, 240, kernel_size=(16, 16), stride=(16, 16))
        (norm): Identity()
      )
      (pos_drop): Dropout(p=0.0, inplace=False)
      (patch_drop): Identity()
      (norm_pre): Identity()
      (blocks): Sequential(
        (0): Block(
          (norm1): LayerNorm((240,), eps=1e-06, elementwise_affine=True)
          (attn): Attention(
            (qkv): Linear(in_features=240, out_features=720, bias=True)
            (q_norm): Identity()
            (k_norm): Identity()
            (attn_drop): Dropout(p=0.0, inplace=False)
            (proj): Linear(in_features=240, out_features=240, bias=True)
            (proj_drop): Dropout(p=0.0, inplace=False)
          )
          (ls1): Identity()
          (drop_path1): Identity()
          (norm2): LayerNorm((240,), eps=1e-06, elementwise_affine=True)
          (mlp): Mlp(
            (fc1): Linear(in_features=240, out_features=960, bias=True)
            (act): GELU(approximate=none)
            (drop1): Dropout(p=0.0, inplace=False)
            (norm): Identity()
            (fc2): Linear(in_features=960, out_features=240, bias=True)
            (drop2): Dropout(p=0.0, inplace=False)
          )
          (ls2): Identity()
          (drop_path2): Identity()
        )
        (1): Block(
          (norm1): LayerNorm((240,), eps=1e-06, elementwise_affine=True)
          (attn): Attention(
            (qkv): Linear(in_features=240, out_features=720, bias=True)
            (q_norm): Identity()
            (k_norm): Identity()
            (attn_drop): Dropout(p=0.0, inplace=False)
            (proj): Linear(in_features=240, out_features=240, bias=True)
            (proj_drop): Dropout(p=0.0, inplace=False)
          )
          (ls1): Identity()
          (drop_path1): Identity()
          (norm2): LayerNorm((240,), eps=1e-06, elementwise_affine=True)
          (mlp): Mlp(
            (fc1): Linear(in_features=240, out_features=960, bias=True)
            (act): GELU(approximate=none)
            (drop1): Dropout(p=0.0, inplace=False)
            (norm): Identity()
            (fc2): Linear(in_features=960, out_features=240, bias=True)
            (drop2): Dropout(p=0.0, inplace=False)
          )
          (ls2): Identity()
          (drop_path2): Identity()
        )
        (2): Block(
          (norm1): LayerNorm((240,), eps=1e-06, elementwise_affine=True)
          (attn): Attention(
            (qkv): Linear(in_features=240, out_features=720, bias=True)
            (q_norm): Identity()
            (k_norm): Identity()
            (attn_drop): Dropout(p=0.0, inplace=False)
            (proj): Linear(in_features=240, out_features=240, bias=True)
            (proj_drop): Dropout(p=0.0, inplace=False)
          )
          (ls1): Identity()
          (drop_path1): Identity()
          (norm2): LayerNorm((240,), eps=1e-06, elementwise_affine=True)
          (mlp): Mlp(
            (fc1): Linear(in_features=240, out_features=960, bias=True)
            (act): GELU(approximate=none)
            (drop1): Dropout(p=0.0, inplace=False)
            (norm): Identity()
            (fc2): Linear(in_features=960, out_features=240, bias=True)
            (drop2): Dropout(p=0.0, inplace=False)
          )
          (ls2): Identity()
          (drop_path2): Identity()
        )
        (3): Block(
          (norm1): LayerNorm((240,), eps=1e-06, elementwise_affine=True)
          (attn): Attention(
            (qkv): Linear(in_features=240, out_features=720, bias=True)
            (q_norm): Identity()
            (k_norm): Identity()
            (attn_drop): Dropout(p=0.0, inplace=False)
            (proj): Linear(in_features=240, out_features=240, bias=True)
            (proj_drop): Dropout(p=0.0, inplace=False)
          )
          (ls1): Identity()
          (drop_path1): Identity()
          (norm2): LayerNorm((240,), eps=1e-06, elementwise_affine=True)
          (mlp): Mlp(
            (fc1): Linear(in_features=240, out_features=960, bias=True)
            (act): GELU(approximate=none)
            (drop1): Dropout(p=0.0, inplace=False)
            (norm): Identity()
            (fc2): Linear(in_features=960, out_features=240, bias=True)
            (drop2): Dropout(p=0.0, inplace=False)
          )
          (ls2): Identity()
          (drop_path2): Identity()
        )
        (4): Block(
          (norm1): LayerNorm((240,), eps=1e-06, elementwise_affine=True)
          (attn): Attention(
            (qkv): Linear(in_features=240, out_features=720, bias=True)
            (q_norm): Identity()
            (k_norm): Identity()
            (attn_drop): Dropout(p=0.0, inplace=False)
            (proj): Linear(in_features=240, out_features=240, bias=True)
            (proj_drop): Dropout(p=0.0, inplace=False)
          )
          (ls1): Identity()
          (drop_path1): Identity()
          (norm2): LayerNorm((240,), eps=1e-06, elementwise_affine=True)
          (mlp): Mlp(
            (fc1): Linear(in_features=240, out_features=960, bias=True)
            (act): GELU(approximate=none)
            (drop1): Dropout(p=0.0, inplace=False)
            (norm): Identity()
            (fc2): Linear(in_features=960, out_features=240, bias=True)
            (drop2): Dropout(p=0.0, inplace=False)
          )
          (ls2): Identity()
          (drop_path2): Identity()
        )
        (5): Block(
          (norm1): LayerNorm((240,), eps=1e-06, elementwise_affine=True)
          (attn): Attention(
            (qkv): Linear(in_features=240, out_features=720, bias=True)
            (q_norm): Identity()
            (k_norm): Identity()
            (attn_drop): Dropout(p=0.0, inplace=False)
            (proj): Linear(in_features=240, out_features=240, bias=True)
            (proj_drop): Dropout(p=0.0, inplace=False)
          )
          (ls1): Identity()
          (drop_path1): Identity()
          (norm2): LayerNorm((240,), eps=1e-06, elementwise_affine=True)
          (mlp): Mlp(
            (fc1): Linear(in_features=240, out_features=960, bias=True)
            (act): GELU(approximate=none)
            (drop1): Dropout(p=0.0, inplace=False)
            (norm): Identity()
            (fc2): Linear(in_features=960, out_features=240, bias=True)
            (drop2): Dropout(p=0.0, inplace=False)
          )
          (ls2): Identity()
          (drop_path2): Identity()
        )
        (6): Block(
          (norm1): LayerNorm((240,), eps=1e-06, elementwise_affine=True)
          (attn): Attention(
            (qkv): Linear(in_features=240, out_features=720, bias=True)
            (q_norm): Identity()
            (k_norm): Identity()
            (attn_drop): Dropout(p=0.0, inplace=False)
            (proj): Linear(in_features=240, out_features=240, bias=True)
            (proj_drop): Dropout(p=0.0, inplace=False)
          )
          (ls1): Identity()
          (drop_path1): Identity()
          (norm2): LayerNorm((240,), eps=1e-06, elementwise_affine=True)
          (mlp): Mlp(
            (fc1): Linear(in_features=240, out_features=960, bias=True)
            (act): GELU(approximate=none)
            (drop1): Dropout(p=0.0, inplace=False)
            (norm): Identity()
            (fc2): Linear(in_features=960, out_features=240, bias=True)
            (drop2): Dropout(p=0.0, inplace=False)
          )
          (ls2): Identity()
          (drop_path2): Identity()
        )
        (7): Block(
          (norm1): LayerNorm((240,), eps=1e-06, elementwise_affine=True)
          (attn): Attention(
            (qkv): Linear(in_features=240, out_features=720, bias=True)
            (q_norm): Identity()
            (k_norm): Identity()
            (attn_drop): Dropout(p=0.0, inplace=False)
            (proj): Linear(in_features=240, out_features=240, bias=True)
            (proj_drop): Dropout(p=0.0, inplace=False)
          )
          (ls1): Identity()
          (drop_path1): Identity()
          (norm2): LayerNorm((240,), eps=1e-06, elementwise_affine=True)
          (mlp): Mlp(
            (fc1): Linear(in_features=240, out_features=960, bias=True)
            (act): GELU(approximate=none)
            (drop1): Dropout(p=0.0, inplace=False)
            (norm): Identity()
            (fc2): Linear(in_features=960, out_features=240, bias=True)
            (drop2): Dropout(p=0.0, inplace=False)
          )
          (ls2): Identity()
          (drop_path2): Identity()
        )
      )
      (fc_norm): Identity()
      (head_drop): Dropout(p=0.0, inplace=False)
      (head): Identity()
      (norm): Identity()
    )
    (fusion_layers): ModuleDict(
      (layer_0): AddFusion(
        (input_proj): Sequential(
          (0): LayerNorm()
          (1): Conv2d(768, 240, kernel_size=(1, 1), stride=(1, 1))
        )
      )
      (layer_1): AddFusion(
        (input_proj): Sequential(
          (0): LayerNorm()
          (1): Conv2d(768, 240, kernel_size=(1, 1), stride=(1, 1))
        )
      )
      (layer_2): AddFusion(
        (input_proj): Sequential(
          (0): LayerNorm()
          (1): Conv2d(768, 240, kernel_size=(1, 1), stride=(1, 1))
        )
      )
      (layer_3): AddFusion(
        (input_proj): Sequential(
          (0): LayerNorm()
          (1): Conv2d(768, 240, kernel_size=(1, 1), stride=(1, 1))
        )
      )
    )
    (mask_decoder): MLPMaskDecoder(
      (query_mlp): MLP(
        (layers): ModuleList(
          (0): Linear(in_features=240, out_features=256, bias=True)
          (1): Linear(in_features=256, out_features=256, bias=True)
          (2): Linear(in_features=256, out_features=256, bias=True)
        )
      )
      (pix_mlp): MLP(
        (layers): ModuleList(
          (0): Conv2d(240, 256, kernel_size=(1, 1), stride=(1, 1))
          (1): Conv2d(256, 256, kernel_size=(1, 1), stride=(1, 1))
          (2): Conv2d(256, 256, kernel_size=(1, 1), stride=(1, 1))
        )
      )
      (attn_mlp): MLP(
        (layers): ModuleList(
          (0): Conv2d(240, 256, kernel_size=(1, 1), stride=(1, 1))
          (1): Conv2d(256, 256, kernel_size=(1, 1), stride=(1, 1))
          (2): Conv2d(256, 3072, kernel_size=(1, 1), stride=(1, 1))
        )
      )
      (bias_scaling): Linear(in_features=1, out_features=1, bias=True)
    )
  )
  (clip_visual_extractor): FeatureExtractor(
    (patchnorm_pre_ln): Identity()
    (conv1): Conv2d(3, 768, kernel_size=(16, 16), stride=(16, 16), bias=False)
    (patch_dropout): Identity()
    (ln_pre): LayerNorm((768,), eps=1e-05, elementwise_affine=True)
    (resblocks): ModuleList(
      (0): ResidualAttentionBlock(
        (ln_1): LayerNorm((768,), eps=1e-05, elementwise_affine=True)
        (attn): MultiheadAttention(
          (out_proj): NonDynamicallyQuantizableLinear(in_features=768, out_features=768, bias=True)
        )
        (ls_1): Identity()
        (ln_2): LayerNorm((768,), eps=1e-05, elementwise_affine=True)
        (mlp): Sequential(
          (c_fc): Linear(in_features=768, out_features=3072, bias=True)
          (gelu): QuickGELU()
          (c_proj): Linear(in_features=3072, out_features=768, bias=True)
        )
        (ls_2): Identity()
      )
      (1): ResidualAttentionBlock(
        (ln_1): LayerNorm((768,), eps=1e-05, elementwise_affine=True)
        (attn): MultiheadAttention(
          (out_proj): NonDynamicallyQuantizableLinear(in_features=768, out_features=768, bias=True)
        )
        (ls_1): Identity()
        (ln_2): LayerNorm((768,), eps=1e-05, elementwise_affine=True)
        (mlp): Sequential(
          (c_fc): Linear(in_features=768, out_features=3072, bias=True)
          (gelu): QuickGELU()
          (c_proj): Linear(in_features=3072, out_features=768, bias=True)
        )
        (ls_2): Identity()
      )
      (2): ResidualAttentionBlock(
        (ln_1): LayerNorm((768,), eps=1e-05, elementwise_affine=True)
        (attn): MultiheadAttention(
          (out_proj): NonDynamicallyQuantizableLinear(in_features=768, out_features=768, bias=True)
        )
        (ls_1): Identity()
        (ln_2): LayerNorm((768,), eps=1e-05, elementwise_affine=True)
        (mlp): Sequential(
          (c_fc): Linear(in_features=768, out_features=3072, bias=True)
          (gelu): QuickGELU()
          (c_proj): Linear(in_features=3072, out_features=768, bias=True)
        )
        (ls_2): Identity()
      )
      (3): ResidualAttentionBlock(
        (ln_1): LayerNorm((768,), eps=1e-05, elementwise_affine=True)
        (attn): MultiheadAttention(
          (out_proj): NonDynamicallyQuantizableLinear(in_features=768, out_features=768, bias=True)
        )
        (ls_1): Identity()
        (ln_2): LayerNorm((768,), eps=1e-05, elementwise_affine=True)
        (mlp): Sequential(
          (c_fc): Linear(in_features=768, out_features=3072, bias=True)
          (gelu): QuickGELU()
          (c_proj): Linear(in_features=3072, out_features=768, bias=True)
        )
        (ls_2): Identity()
      )
      (4): ResidualAttentionBlock(
        (ln_1): LayerNorm((768,), eps=1e-05, elementwise_affine=True)
        (attn): MultiheadAttention(
          (out_proj): NonDynamicallyQuantizableLinear(in_features=768, out_features=768, bias=True)
        )
        (ls_1): Identity()
        (ln_2): LayerNorm((768,), eps=1e-05, elementwise_affine=True)
        (mlp): Sequential(
          (c_fc): Linear(in_features=768, out_features=3072, bias=True)
          (gelu): QuickGELU()
          (c_proj): Linear(in_features=3072, out_features=768, bias=True)
        )
        (ls_2): Identity()
      )
      (5): ResidualAttentionBlock(
        (ln_1): LayerNorm((768,), eps=1e-05, elementwise_affine=True)
        (attn): MultiheadAttention(
          (out_proj): NonDynamicallyQuantizableLinear(in_features=768, out_features=768, bias=True)
        )
        (ls_1): Identity()
        (ln_2): LayerNorm((768,), eps=1e-05, elementwise_affine=True)
        (mlp): Sequential(
          (c_fc): Linear(in_features=768, out_features=3072, bias=True)
          (gelu): QuickGELU()
          (c_proj): Linear(in_features=3072, out_features=768, bias=True)
        )
        (ls_2): Identity()
      )
      (6): ResidualAttentionBlock(
        (ln_1): LayerNorm((768,), eps=1e-05, elementwise_affine=True)
        (attn): MultiheadAttention(
          (out_proj): NonDynamicallyQuantizableLinear(in_features=768, out_features=768, bias=True)
        )
        (ls_1): Identity()
        (ln_2): LayerNorm((768,), eps=1e-05, elementwise_affine=True)
        (mlp): Sequential(
          (c_fc): Linear(in_features=768, out_features=3072, bias=True)
          (gelu): QuickGELU()
          (c_proj): Linear(in_features=3072, out_features=768, bias=True)
        )
        (ls_2): Identity()
      )
      (7): ResidualAttentionBlock(
        (ln_1): LayerNorm((768,), eps=1e-05, elementwise_affine=True)
        (attn): MultiheadAttention(
          (out_proj): NonDynamicallyQuantizableLinear(in_features=768, out_features=768, bias=True)
        )
        (ls_1): Identity()
        (ln_2): LayerNorm((768,), eps=1e-05, elementwise_affine=True)
        (mlp): Sequential(
          (c_fc): Linear(in_features=768, out_features=3072, bias=True)
          (gelu): QuickGELU()
          (c_proj): Linear(in_features=3072, out_features=768, bias=True)
        )
        (ls_2): Identity()
      )
      (8): ResidualAttentionBlock(
        (ln_1): LayerNorm((768,), eps=1e-05, elementwise_affine=True)
        (attn): MultiheadAttention(
          (out_proj): NonDynamicallyQuantizableLinear(in_features=768, out_features=768, bias=True)
        )
        (ls_1): Identity()
        (ln_2): LayerNorm((768,), eps=1e-05, elementwise_affine=True)
        (mlp): Sequential(
          (c_fc): Linear(in_features=768, out_features=3072, bias=True)
          (gelu): QuickGELU()
          (c_proj): Linear(in_features=3072, out_features=768, bias=True)
        )
        (ls_2): Identity()
      )
    )
  )
  (clip_rec_head): RecWithAttnbiasHead(
    (resblocks): ModuleList(
      (0): ResidualAttentionBlock(
        (ln_1): LayerNorm((768,), eps=1e-05, elementwise_affine=True)
        (attn): MultiheadAttention(
          (out_proj): NonDynamicallyQuantizableLinear(in_features=768, out_features=768, bias=True)
        )
        (ls_1): Identity()
        (ln_2): LayerNorm((768,), eps=1e-05, elementwise_affine=True)
        (mlp): Sequential(
          (c_fc): Linear(in_features=768, out_features=3072, bias=True)
          (gelu): QuickGELU()
          (c_proj): Linear(in_features=3072, out_features=768, bias=True)
        )
        (ls_2): Identity()
      )
      (1): ResidualAttentionBlock(
        (ln_1): LayerNorm((768,), eps=1e-05, elementwise_affine=True)
        (attn): MultiheadAttention(
          (out_proj): NonDynamicallyQuantizableLinear(in_features=768, out_features=768, bias=True)
        )
        (ls_1): Identity()
        (ln_2): LayerNorm((768,), eps=1e-05, elementwise_affine=True)
        (mlp): Sequential(
          (c_fc): Linear(in_features=768, out_features=3072, bias=True)
          (gelu): QuickGELU()
          (c_proj): Linear(in_features=3072, out_features=768, bias=True)
        )
        (ls_2): Identity()
      )
      (2): ResidualAttentionBlock(
        (ln_1): LayerNorm((768,), eps=1e-05, elementwise_affine=True)
        (attn): MultiheadAttention(
          (out_proj): NonDynamicallyQuantizableLinear(in_features=768, out_features=768, bias=True)
        )
        (ls_1): Identity()
        (ln_2): LayerNorm((768,), eps=1e-05, elementwise_affine=True)
        (mlp): Sequential(
          (c_fc): Linear(in_features=768, out_features=3072, bias=True)
          (gelu): QuickGELU()
          (c_proj): Linear(in_features=3072, out_features=768, bias=True)
        )
        (ls_2): Identity()
      )
    )
    (ln_post): LayerNorm((768,), eps=1e-05, elementwise_affine=True)
    (decoder): SLSTransformerDecoder(
      (layers): ModuleList(
        (0): ModuleList(
          (0): LayerNormBlock(
            (norm): LayerNorm((768,), eps=1e-06, elementwise_affine=True)
            (dropout): Dropout(p=0.0, inplace=False)
            (fn): Attention(
              (attn_prob): Softmax(dim=-1)
              (query): Linear(in_features=768, out_features=768, bias=False)
              (key): Linear(in_features=768, out_features=768, bias=False)
              (value): Linear(in_features=768, out_features=768, bias=False)
              (to_out): Sequential(
                (0): Linear(in_features=768, out_features=768, bias=True)
                (1): Dropout(p=0.0, inplace=False)
              )
            )
          )
          (1): LayerNormBlock(
            (norm): LayerNorm((768,), eps=1e-06, elementwise_affine=True)
            (dropout): Dropout(p=0.0, inplace=False)
            (fn): FeedForward(
              (net): Sequential(
                (0): Linear(in_features=768, out_features=3072, bias=True)
                (1): GELU(approximate=none)
                (2): Dropout(p=0.0, inplace=False)
                (3): Linear(in_features=3072, out_features=768, bias=True)
                (4): Dropout(p=0.0, inplace=False)
              )
            )
          )
        )
        (1): ModuleList(
          (0): LayerNormBlock(
            (norm): LayerNorm((768,), eps=1e-06, elementwise_affine=True)
            (dropout): Dropout(p=0.0, inplace=False)
            (fn): Attention(
              (attn_prob): Softmax(dim=-1)
              (query): Linear(in_features=768, out_features=768, bias=False)
              (key): Linear(in_features=768, out_features=768, bias=False)
              (value): Linear(in_features=768, out_features=768, bias=False)
              (to_out): Sequential(
                (0): Linear(in_features=768, out_features=768, bias=True)
                (1): Dropout(p=0.0, inplace=False)
              )
            )
          )
          (1): LayerNormBlock(
            (norm): LayerNorm((768,), eps=1e-06, elementwise_affine=True)
            (dropout): Dropout(p=0.0, inplace=False)
            (fn): FeedForward(
              (net): Sequential(
                (0): Linear(in_features=768, out_features=3072, bias=True)
                (1): GELU(approximate=none)
                (2): Dropout(p=0.0, inplace=False)
                (3): Linear(in_features=3072, out_features=768, bias=True)
                (4): Dropout(p=0.0, inplace=False)
              )
            )
          )
        )
        (2): ModuleList(
          (0): LayerNormBlock(
            (norm): LayerNorm((768,), eps=1e-06, elementwise_affine=True)
            (dropout): Dropout(p=0.0, inplace=False)
            (fn): Attention(
              (attn_prob): Softmax(dim=-1)
              (query): Linear(in_features=768, out_features=768, bias=False)
              (key): Linear(in_features=768, out_features=768, bias=False)
              (value): Linear(in_features=768, out_features=768, bias=False)
              (to_out): Sequential(
                (0): Linear(in_features=768, out_features=768, bias=True)
                (1): Dropout(p=0.0, inplace=False)
              )
            )
          )
          (1): LayerNormBlock(
            (norm): LayerNorm((768,), eps=1e-06, elementwise_affine=True)
            (dropout): Dropout(p=0.0, inplace=False)
            (fn): FeedForward(
              (net): Sequential(
                (0): Linear(in_features=768, out_features=3072, bias=True)
                (1): GELU(approximate=none)
                (2): Dropout(p=0.0, inplace=False)
                (3): Linear(in_features=3072, out_features=768, bias=True)
                (4): Dropout(p=0.0, inplace=False)
              )
            )
          )
        )
        (3): ModuleList(
          (0): LayerNormBlock(
            (norm): LayerNorm((768,), eps=1e-06, elementwise_affine=True)
            (dropout): Dropout(p=0.0, inplace=False)
            (fn): Attention(
              (attn_prob): Softmax(dim=-1)
              (query): Linear(in_features=768, out_features=768, bias=False)
              (key): Linear(in_features=768, out_features=768, bias=False)
              (value): Linear(in_features=768, out_features=768, bias=False)
              (to_out): Sequential(
                (0): Linear(in_features=768, out_features=768, bias=True)
                (1): Dropout(p=0.0, inplace=False)
              )
            )
          )
          (1): LayerNormBlock(
            (norm): LayerNorm((768,), eps=1e-06, elementwise_affine=True)
            (dropout): Dropout(p=0.0, inplace=False)
            (fn): FeedForward(
              (net): Sequential(
                (0): Linear(in_features=768, out_features=3072, bias=True)
                (1): GELU(approximate=none)
                (2): Dropout(p=0.0, inplace=False)
                (3): Linear(in_features=3072, out_features=768, bias=True)
                (4): Dropout(p=0.0, inplace=False)
              )
            )
          )
        )
        (4): ModuleList(
          (0): LayerNormBlock(
            (norm): LayerNorm((768,), eps=1e-06, elementwise_affine=True)
            (dropout): Dropout(p=0.0, inplace=False)
            (fn): Attention(
              (attn_prob): Softmax(dim=-1)
              (query): Linear(in_features=768, out_features=768, bias=False)
              (key): Linear(in_features=768, out_features=768, bias=False)
              (value): Linear(in_features=768, out_features=768, bias=False)
              (to_out): Sequential(
                (0): Linear(in_features=768, out_features=768, bias=True)
                (1): Dropout(p=0.0, inplace=False)
              )
            )
          )
          (1): LayerNormBlock(
            (norm): LayerNorm((768,), eps=1e-06, elementwise_affine=True)
            (dropout): Dropout(p=0.0, inplace=False)
            (fn): FeedForward(
              (net): Sequential(
                (0): Linear(in_features=768, out_features=3072, bias=True)
                (1): GELU(approximate=none)
                (2): Dropout(p=0.0, inplace=False)
                (3): Linear(in_features=3072, out_features=768, bias=True)
                (4): Dropout(p=0.0, inplace=False)
              )
            )
          )
        )
        (5): ModuleList(
          (0): LayerNormBlock(
            (norm): LayerNorm((768,), eps=1e-06, elementwise_affine=True)
            (dropout): Dropout(p=0.0, inplace=False)
            (fn): Attention(
              (attn_prob): Softmax(dim=-1)
              (query): Linear(in_features=768, out_features=768, bias=False)
              (key): Linear(in_features=768, out_features=768, bias=False)
              (value): Linear(in_features=768, out_features=768, bias=False)
              (to_out): Sequential(
                (0): Linear(in_features=768, out_features=768, bias=True)
                (1): Dropout(p=0.0, inplace=False)
              )
            )
          )
          (1): LayerNormBlock(
            (norm): LayerNorm((768,), eps=1e-06, elementwise_affine=True)
            (dropout): Dropout(p=0.0, inplace=False)
            (fn): FeedForward(
              (net): Sequential(
                (0): Linear(in_features=768, out_features=3072, bias=True)
                (1): GELU(approximate=none)
                (2): Dropout(p=0.0, inplace=False)
                (3): Linear(in_features=3072, out_features=768, bias=True)
                (4): Dropout(p=0.0, inplace=False)
              )
            )
          )
        )
        (6): ModuleList(
          (0): LayerNormBlock(
            (norm): LayerNorm((768,), eps=1e-06, elementwise_affine=True)
            (dropout): Dropout(p=0.0, inplace=False)
            (fn): Attention(
              (attn_prob): Softmax(dim=-1)
              (query): Linear(in_features=768, out_features=768, bias=False)
              (key): Linear(in_features=768, out_features=768, bias=False)
              (value): Linear(in_features=768, out_features=768, bias=False)
              (to_out): Sequential(
                (0): Linear(in_features=768, out_features=768, bias=True)
                (1): Dropout(p=0.0, inplace=False)
              )
            )
          )
          (1): LayerNormBlock(
            (norm): LayerNorm((768,), eps=1e-06, elementwise_affine=True)
            (dropout): Dropout(p=0.0, inplace=False)
            (fn): FeedForward(
              (net): Sequential(
                (0): Linear(in_features=768, out_features=3072, bias=True)
                (1): GELU(approximate=none)
                (2): Dropout(p=0.0, inplace=False)
                (3): Linear(in_features=3072, out_features=768, bias=True)
                (4): Dropout(p=0.0, inplace=False)
              )
            )
          )
        )
        (7): ModuleList(
          (0): LayerNormBlock(
            (norm): LayerNorm((768,), eps=1e-06, elementwise_affine=True)
            (dropout): Dropout(p=0.0, inplace=False)
            (fn): Attention(
              (attn_prob): Softmax(dim=-1)
              (query): Linear(in_features=768, out_features=768, bias=False)
              (key): Linear(in_features=768, out_features=768, bias=False)
              (value): Linear(in_features=768, out_features=768, bias=False)
              (to_out): Sequential(
                (0): Linear(in_features=768, out_features=768, bias=True)
                (1): Dropout(p=0.0, inplace=False)
              )
            )
          )
          (1): LayerNormBlock(
            (norm): LayerNorm((768,), eps=1e-06, elementwise_affine=True)
            (dropout): Dropout(p=0.0, inplace=False)
            (fn): FeedForward(
              (net): Sequential(
                (0): Linear(in_features=768, out_features=3072, bias=True)
                (1): GELU(approximate=none)
                (2): Dropout(p=0.0, inplace=False)
                (3): Linear(in_features=3072, out_features=768, bias=True)
                (4): Dropout(p=0.0, inplace=False)
              )
            )
          )
        )
      )
      (unpatch_conv): ConvTranspose2d(768, 3, kernel_size=(32, 32), stride=(32, 32))
    )
    (decoder_act): Tanh()
    (lpips): LPIPS(
      (scaling_layer): ScalingLayer()
      (net): vgg16(
        (slice1): Sequential(
          (0): Conv2d(3, 64, kernel_size=(3, 3), stride=(1, 1), padding=(1, 1))
          (1): ReLU(inplace=True)
          (2): Conv2d(64, 64, kernel_size=(3, 3), stride=(1, 1), padding=(1, 1))
          (3): ReLU(inplace=True)
        )
        (slice2): Sequential(
          (4): MaxPool2d(kernel_size=2, stride=2, padding=0, dilation=1, ceil_mode=False)
          (5): Conv2d(64, 128, kernel_size=(3, 3), stride=(1, 1), padding=(1, 1))
          (6): ReLU(inplace=True)
          (7): Conv2d(128, 128, kernel_size=(3, 3), stride=(1, 1), padding=(1, 1))
          (8): ReLU(inplace=True)
        )
        (slice3): Sequential(
          (9): MaxPool2d(kernel_size=2, stride=2, padding=0, dilation=1, ceil_mode=False)
          (10): Conv2d(128, 256, kernel_size=(3, 3), stride=(1, 1), padding=(1, 1))
          (11): ReLU(inplace=True)
          (12): Conv2d(256, 256, kernel_size=(3, 3), stride=(1, 1), padding=(1, 1))
          (13): ReLU(inplace=True)
          (14): Conv2d(256, 256, kernel_size=(3, 3), stride=(1, 1), padding=(1, 1))
          (15): ReLU(inplace=True)
        )
        (slice4): Sequential(
          (16): MaxPool2d(kernel_size=2, stride=2, padding=0, dilation=1, ceil_mode=False)
          (17): Conv2d(256, 512, kernel_size=(3, 3), stride=(1, 1), padding=(1, 1))
          (18): ReLU(inplace=True)
          (19): Conv2d(512, 512, kernel_size=(3, 3), stride=(1, 1), padding=(1, 1))
          (20): ReLU(inplace=True)
          (21): Conv2d(512, 512, kernel_size=(3, 3), stride=(1, 1), padding=(1, 1))
          (22): ReLU(inplace=True)
        )
        (slice5): Sequential(
          (23): MaxPool2d(kernel_size=2, stride=2, padding=0, dilation=1, ceil_mode=False)
          (24): Conv2d(512, 512, kernel_size=(3, 3), stride=(1, 1), padding=(1, 1))
          (25): ReLU(inplace=True)
          (26): Conv2d(512, 512, kernel_size=(3, 3), stride=(1, 1), padding=(1, 1))
          (27): ReLU(inplace=True)
          (28): Conv2d(512, 512, kernel_size=(3, 3), stride=(1, 1), padding=(1, 1))
          (29): ReLU(inplace=True)
        )
      )
      (lin0): NetLinLayer(
        (model): Sequential(
          (0): Dropout(p=0.5, inplace=False)
          (1): Conv2d(64, 1, kernel_size=(1, 1), stride=(1, 1), bias=False)
        )
      )
      (lin1): NetLinLayer(
        (model): Sequential(
          (0): Dropout(p=0.5, inplace=False)
          (1): Conv2d(128, 1, kernel_size=(1, 1), stride=(1, 1), bias=False)
        )
      )
      (lin2): NetLinLayer(
        (model): Sequential(
          (0): Dropout(p=0.5, inplace=False)
          (1): Conv2d(256, 1, kernel_size=(1, 1), stride=(1, 1), bias=False)
        )
      )
      (lin3): NetLinLayer(
        (model): Sequential(
          (0): Dropout(p=0.5, inplace=False)
          (1): Conv2d(512, 1, kernel_size=(1, 1), stride=(1, 1), bias=False)
        )
      )
      (lin4): NetLinLayer(
        (model): Sequential(
          (0): Dropout(p=0.5, inplace=False)
          (1): Conv2d(512, 1, kernel_size=(1, 1), stride=(1, 1), bias=False)
        )
      )
    )
  )
  (ov_classifier): LearnableBgOvClassifier(
    (transformer): Transformer(
      (resblocks): ModuleList(
        (0): ResidualAttentionBlock(
          (ln_1): LayerNorm((512,), eps=1e-05, elementwise_affine=True)
          (attn): MultiheadAttention(
            (out_proj): NonDynamicallyQuantizableLinear(in_features=512, out_features=512, bias=True)
          )
          (ls_1): Identity()
          (ln_2): LayerNorm((512,), eps=1e-05, elementwise_affine=True)
          (mlp): Sequential(
            (c_fc): Linear(in_features=512, out_features=2048, bias=True)
            (gelu): QuickGELU()
            (c_proj): Linear(in_features=2048, out_features=512, bias=True)
          )
          (ls_2): Identity()
        )
        (1): ResidualAttentionBlock(
          (ln_1): LayerNorm((512,), eps=1e-05, elementwise_affine=True)
          (attn): MultiheadAttention(
            (out_proj): NonDynamicallyQuantizableLinear(in_features=512, out_features=512, bias=True)
          )
          (ls_1): Identity()
          (ln_2): LayerNorm((512,), eps=1e-05, elementwise_affine=True)
          (mlp): Sequential(
            (c_fc): Linear(in_features=512, out_features=2048, bias=True)
            (gelu): QuickGELU()
            (c_proj): Linear(in_features=2048, out_features=512, bias=True)
          )
          (ls_2): Identity()
        )
        (2): ResidualAttentionBlock(
          (ln_1): LayerNorm((512,), eps=1e-05, elementwise_affine=True)
          (attn): MultiheadAttention(
            (out_proj): NonDynamicallyQuantizableLinear(in_features=512, out_features=512, bias=True)
          )
          (ls_1): Identity()
          (ln_2): LayerNorm((512,), eps=1e-05, elementwise_affine=True)
          (mlp): Sequential(
            (c_fc): Linear(in_features=512, out_features=2048, bias=True)
            (gelu): QuickGELU()
            (c_proj): Linear(in_features=2048, out_features=512, bias=True)
          )
          (ls_2): Identity()
        )
        (3): ResidualAttentionBlock(
          (ln_1): LayerNorm((512,), eps=1e-05, elementwise_affine=True)
          (attn): MultiheadAttention(
            (out_proj): NonDynamicallyQuantizableLinear(in_features=512, out_features=512, bias=True)
          )
          (ls_1): Identity()
          (ln_2): LayerNorm((512,), eps=1e-05, elementwise_affine=True)
          (mlp): Sequential(
            (c_fc): Linear(in_features=512, out_features=2048, bias=True)
            (gelu): QuickGELU()
            (c_proj): Linear(in_features=2048, out_features=512, bias=True)
          )
          (ls_2): Identity()
        )
        (4): ResidualAttentionBlock(
          (ln_1): LayerNorm((512,), eps=1e-05, elementwise_affine=True)
          (attn): MultiheadAttention(
            (out_proj): NonDynamicallyQuantizableLinear(in_features=512, out_features=512, bias=True)
          )
          (ls_1): Identity()
          (ln_2): LayerNorm((512,), eps=1e-05, elementwise_affine=True)
          (mlp): Sequential(
            (c_fc): Linear(in_features=512, out_features=2048, bias=True)
            (gelu): QuickGELU()
            (c_proj): Linear(in_features=2048, out_features=512, bias=True)
          )
          (ls_2): Identity()
        )
        (5): ResidualAttentionBlock(
          (ln_1): LayerNorm((512,), eps=1e-05, elementwise_affine=True)
          (attn): MultiheadAttention(
            (out_proj): NonDynamicallyQuantizableLinear(in_features=512, out_features=512, bias=True)
          )
          (ls_1): Identity()
          (ln_2): LayerNorm((512,), eps=1e-05, elementwise_affine=True)
          (mlp): Sequential(
            (c_fc): Linear(in_features=512, out_features=2048, bias=True)
            (gelu): QuickGELU()
            (c_proj): Linear(in_features=2048, out_features=512, bias=True)
          )
          (ls_2): Identity()
        )
        (6): ResidualAttentionBlock(
          (ln_1): LayerNorm((512,), eps=1e-05, elementwise_affine=True)
          (attn): MultiheadAttention(
            (out_proj): NonDynamicallyQuantizableLinear(in_features=512, out_features=512, bias=True)
          )
          (ls_1): Identity()
          (ln_2): LayerNorm((512,), eps=1e-05, elementwise_affine=True)
          (mlp): Sequential(
            (c_fc): Linear(in_features=512, out_features=2048, bias=True)
            (gelu): QuickGELU()
            (c_proj): Linear(in_features=2048, out_features=512, bias=True)
          )
          (ls_2): Identity()
        )
        (7): ResidualAttentionBlock(
          (ln_1): LayerNorm((512,), eps=1e-05, elementwise_affine=True)
          (attn): MultiheadAttention(
            (out_proj): NonDynamicallyQuantizableLinear(in_features=512, out_features=512, bias=True)
          )
          (ls_1): Identity()
          (ln_2): LayerNorm((512,), eps=1e-05, elementwise_affine=True)
          (mlp): Sequential(
            (c_fc): Linear(in_features=512, out_features=2048, bias=True)
            (gelu): QuickGELU()
            (c_proj): Linear(in_features=2048, out_features=512, bias=True)
          )
          (ls_2): Identity()
        )
        (8): ResidualAttentionBlock(
          (ln_1): LayerNorm((512,), eps=1e-05, elementwise_affine=True)
          (attn): MultiheadAttention(
            (out_proj): NonDynamicallyQuantizableLinear(in_features=512, out_features=512, bias=True)
          )
          (ls_1): Identity()
          (ln_2): LayerNorm((512,), eps=1e-05, elementwise_affine=True)
          (mlp): Sequential(
            (c_fc): Linear(in_features=512, out_features=2048, bias=True)
            (gelu): QuickGELU()
            (c_proj): Linear(in_features=2048, out_features=512, bias=True)
          )
          (ls_2): Identity()
        )
        (9): ResidualAttentionBlock(
          (ln_1): LayerNorm((512,), eps=1e-05, elementwise_affine=True)
          (attn): MultiheadAttention(
            (out_proj): NonDynamicallyQuantizableLinear(in_features=512, out_features=512, bias=True)
          )
          (ls_1): Identity()
          (ln_2): LayerNorm((512,), eps=1e-05, elementwise_affine=True)
          (mlp): Sequential(
            (c_fc): Linear(in_features=512, out_features=2048, bias=True)
            (gelu): QuickGELU()
            (c_proj): Linear(in_features=2048, out_features=512, bias=True)
          )
          (ls_2): Identity()
        )
        (10): ResidualAttentionBlock(
          (ln_1): LayerNorm((512,), eps=1e-05, elementwise_affine=True)
          (attn): MultiheadAttention(
            (out_proj): NonDynamicallyQuantizableLinear(in_features=512, out_features=512, bias=True)
          )
          (ls_1): Identity()
          (ln_2): LayerNorm((512,), eps=1e-05, elementwise_affine=True)
          (mlp): Sequential(
            (c_fc): Linear(in_features=512, out_features=2048, bias=True)
            (gelu): QuickGELU()
            (c_proj): Linear(in_features=2048, out_features=512, bias=True)
          )
          (ls_2): Identity()
        )
        (11): ResidualAttentionBlock(
          (ln_1): LayerNorm((512,), eps=1e-05, elementwise_affine=True)
          (attn): MultiheadAttention(
            (out_proj): NonDynamicallyQuantizableLinear(in_features=512, out_features=512, bias=True)
          )
          (ls_1): Identity()
          (ln_2): LayerNorm((512,), eps=1e-05, elementwise_affine=True)
          (mlp): Sequential(
            (c_fc): Linear(in_features=512, out_features=2048, bias=True)
            (gelu): QuickGELU()
            (c_proj): Linear(in_features=2048, out_features=512, bias=True)
          )
          (ls_2): Identity()
        )
      )
    )
    (token_embedding): Embedding(49408, 512)
    (ln_final): LayerNorm((512,), eps=1e-05, elementwise_affine=True)
  )
)
[12/09 10:24:13 d2.checkpoint.detection_checkpoint]: [DetectionCheckpointer] Loading from output/vqsan_quant_recon/model_final.pth ...
[12/09 10:24:13 fvcore.common.checkpoint]: [Checkpointer] Loading from output/vqsan_quant_recon/model_final.pth ...
loaded pretrained LPIPS loss from resources/models/lpips/vgg.pth
[12/09 10:24:14 d2.data.datasets.coco]: Loaded 5000 images with semantic segmentation from datasets/coco/val2017
…
