…
WARNING:timm.models._builder:No pretrained configuration specified for vit_tiny_patch16_224_in21k model. Using a default. Please add a config to the model pretrained_cfg registry or pass explicitly.
[12/03 01:52:30 d2.engine.defaults]: Model:
SAN(
  (criterion): Criterion SetCriterion
      matcher: Matcher HungarianMatcher
          cost_class: 2.0
          cost_mask: 5.0
          cost_dice: 5.0
      losses: ['labels', 'masks']
      weight_dict: {'loss_vq': 1.0, 'loss_ce': 2.0, 'loss_mask': 5.0, 'loss_dice': 5.0, 'loss_vq_0': 1.0, 'loss_ce_0': 2.0, 'loss_mask_0': 5.0, 'loss_dice_0': 5.0}
      num_classes: 171
      eos_coef: 0.1
      num_points: 12544
      oversample_ratio: 3.0
      importance_sample_ratio: 0.75
  (query_proj): Linear(in_features=240, out_features=768, bias=False)
  (side_adapter_network): RegionwiseSideAdapterNetwork(
    (vit_model): VisionTransformer(
      (patch_embed): PatchEmbed(
        (proj): Conv2d(3, 240, kernel_size=(16, 16), stride=(16, 16))
        (norm): Identity()
      )
      (pos_drop): Dropout(p=0.0, inplace=False)
      (patch_drop): Identity()
      (norm_pre): Identity()
      (blocks): Sequential(
        (0): Block(
          (norm1): LayerNorm((240,), eps=1e-06, elementwise_affine=True)
          (attn): Attention(
            (qkv): Linear(in_features=240, out_features=720, bias=True)
            (q_norm): Identity()
            (k_norm): Identity()
            (attn_drop): Dropout(p=0.0, inplace=False)
            (proj): Linear(in_features=240, out_features=240, bias=True)
            (proj_drop): Dropout(p=0.0, inplace=False)
          )
          (ls1): Identity()
          (drop_path1): Identity()
          (norm2): LayerNorm((240,), eps=1e-06, elementwise_affine=True)
          (mlp): Mlp(
            (fc1): Linear(in_features=240, out_features=960, bias=True)
            (act): GELU(approximate=none)
            (drop1): Dropout(p=0.0, inplace=False)
            (norm): Identity()
            (fc2): Linear(in_features=960, out_features=240, bias=True)
            (drop2): Dropout(p=0.0, inplace=False)
          )
          (ls2): Identity()
          (drop_path2): Identity()
        )
        (1): Block(
          (norm1): LayerNorm((240,), eps=1e-06, elementwise_affine=True)
          (attn): Attention(
            (qkv): Linear(in_features=240, out_features=720, bias=True)
            (q_norm): Identity()
            (k_norm): Identity()
            (attn_drop): Dropout(p=0.0, inplace=False)
            (proj): Linear(in_features=240, out_features=240, bias=True)
            (proj_drop): Dropout(p=0.0, inplace=False)
          )
          (ls1): Identity()
          (drop_path1): Identity()
          (norm2): LayerNorm((240,), eps=1e-06, elementwise_affine=True)
          (mlp): Mlp(
            (fc1): Linear(in_features=240, out_features=960, bias=True)
            (act): GELU(approximate=none)
            (drop1): Dropout(p=0.0, inplace=False)
            (norm): Identity()
            (fc2): Linear(in_features=960, out_features=240, bias=True)
            (drop2): Dropout(p=0.0, inplace=False)
          )
          (ls2): Identity()
          (drop_path2): Identity()
        )
        (2): Block(
          (norm1): LayerNorm((240,), eps=1e-06, elementwise_affine=True)
          (attn): Attention(
            (qkv): Linear(in_features=240, out_features=720, bias=True)
            (q_norm): Identity()
            (k_norm): Identity()
            (attn_drop): Dropout(p=0.0, inplace=False)
            (proj): Linear(in_features=240, out_features=240, bias=True)
            (proj_drop): Dropout(p=0.0, inplace=False)
          )
          (ls1): Identity()
          (drop_path1): Identity()
          (norm2): LayerNorm((240,), eps=1e-06, elementwise_affine=True)
          (mlp): Mlp(
            (fc1): Linear(in_features=240, out_features=960, bias=True)
            (act): GELU(approximate=none)
            (drop1): Dropout(p=0.0, inplace=False)
            (norm): Identity()
            (fc2): Linear(in_features=960, out_features=240, bias=True)
            (drop2): Dropout(p=0.0, inplace=False)
          )
          (ls2): Identity()
          (drop_path2): Identity()
        )
        (3): Block(
          (norm1): LayerNorm((240,), eps=1e-06, elementwise_affine=True)
          (attn): Attention(
            (qkv): Linear(in_features=240, out_features=720, bias=True)
            (q_norm): Identity()
            (k_norm): Identity()
            (attn_drop): Dropout(p=0.0, inplace=False)
            (proj): Linear(in_features=240, out_features=240, bias=True)
            (proj_drop): Dropout(p=0.0, inplace=False)
          )
          (ls1): Identity()
          (drop_path1): Identity()
          (norm2): LayerNorm((240,), eps=1e-06, elementwise_affine=True)
          (mlp): Mlp(
            (fc1): Linear(in_features=240, out_features=960, bias=True)
            (act): GELU(approximate=none)
            (drop1): Dropout(p=0.0, inplace=False)
            (norm): Identity()
            (fc2): Linear(in_features=960, out_features=240, bias=True)
            (drop2): Dropout(p=0.0, inplace=False)
          )
          (ls2): Identity()
          (drop_path2): Identity()
        )
        (4): Block(
          (norm1): LayerNorm((240,), eps=1e-06, elementwise_affine=True)
          (attn): Attention(
            (qkv): Linear(in_features=240, out_features=720, bias=True)
            (q_norm): Identity()
            (k_norm): Identity()
            (attn_drop): Dropout(p=0.0, inplace=False)
            (proj): Linear(in_features=240, out_features=240, bias=True)
            (proj_drop): Dropout(p=0.0, inplace=False)
          )
          (ls1): Identity()
          (drop_path1): Identity()
          (norm2): LayerNorm((240,), eps=1e-06, elementwise_affine=True)
          (mlp): Mlp(
            (fc1): Linear(in_features=240, out_features=960, bias=True)
            (act): GELU(approximate=none)
            (drop1): Dropout(p=0.0, inplace=False)
            (norm): Identity()
            (fc2): Linear(in_features=960, out_features=240, bias=True)
            (drop2): Dropout(p=0.0, inplace=False)
          )
          (ls2): Identity()
          (drop_path2): Identity()
        )
        (5): Block(
          (norm1): LayerNorm((240,), eps=1e-06, elementwise_affine=True)
          (attn): Attention(
            (qkv): Linear(in_features=240, out_features=720, bias=True)
            (q_norm): Identity()
            (k_norm): Identity()
            (attn_drop): Dropout(p=0.0, inplace=False)
            (proj): Linear(in_features=240, out_features=240, bias=True)
            (proj_drop): Dropout(p=0.0, inplace=False)
          )
          (ls1): Identity()
          (drop_path1): Identity()
          (norm2): LayerNorm((240,), eps=1e-06, elementwise_affine=True)
          (mlp): Mlp(
            (fc1): Linear(in_features=240, out_features=960, bias=True)
            (act): GELU(approximate=none)
            (drop1): Dropout(p=0.0, inplace=False)
            (norm): Identity()
            (fc2): Linear(in_features=960, out_features=240, bias=True)
            (drop2): Dropout(p=0.0, inplace=False)
          )
          (ls2): Identity()
          (drop_path2): Identity()
        )
        (6): Block(
          (norm1): LayerNorm((240,), eps=1e-06, elementwise_affine=True)
          (attn): Attention(
            (qkv): Linear(in_features=240, out_features=720, bias=True)
            (q_norm): Identity()
            (k_norm): Identity()
            (attn_drop): Dropout(p=0.0, inplace=False)
            (proj): Linear(in_features=240, out_features=240, bias=True)
            (proj_drop): Dropout(p=0.0, inplace=False)
          )
          (ls1): Identity()
          (drop_path1): Identity()
          (norm2): LayerNorm((240,), eps=1e-06, elementwise_affine=True)
          (mlp): Mlp(
            (fc1): Linear(in_features=240, out_features=960, bias=True)
            (act): GELU(approximate=none)
            (drop1): Dropout(p=0.0, inplace=False)
            (norm): Identity()
            (fc2): Linear(in_features=960, out_features=240, bias=True)
            (drop2): Dropout(p=0.0, inplace=False)
          )
          (ls2): Identity()
          (drop_path2): Identity()
        )
        (7): Block(
          (norm1): LayerNorm((240,), eps=1e-06, elementwise_affine=True)
          (attn): Attention(
            (qkv): Linear(in_features=240, out_features=720, bias=True)
            (q_norm): Identity()
            (k_norm): Identity()
            (attn_drop): Dropout(p=0.0, inplace=False)
            (proj): Linear(in_features=240, out_features=240, bias=True)
            (proj_drop): Dropout(p=0.0, inplace=False)
          )
          (ls1): Identity()
          (drop_path1): Identity()
          (norm2): LayerNorm((240,), eps=1e-06, elementwise_affine=True)
          (mlp): Mlp(
            (fc1): Linear(in_features=240, out_features=960, bias=True)
            (act): GELU(approximate=none)
            (drop1): Dropout(p=0.0, inplace=False)
            (norm): Identity()
            (fc2): Linear(in_features=960, out_features=240, bias=True)
            (drop2): Dropout(p=0.0, inplace=False)
          )
          (ls2): Identity()
          (drop_path2): Identity()
        )
      )
      (fc_norm): Identity()
      (head_drop): Dropout(p=0.0, inplace=False)
      (head): Identity()
      (norm): Identity()
    )
    (fusion_layers): ModuleDict(
      (layer_0): VQFusion(
        (input_proj): Sequential(
          (0): LayerNorm()
          (1): Conv2d(768, 240, kernel_size=(1, 1), stride=(1, 1))
        )
        (cross_attn): MeanShiftTransformer(
          (layers): ModuleList(
            (0): ModuleList(
              (0): LayerNormBlock(
                (norm): LayerNorm((240,), eps=1e-06, elementwise_affine=True)
                (dropout): Dropout(p=0.0, inplace=False)
                (fn): MeanShiftAttention(
                  (attn_prob): Softmax(dim=-1)
                  (query): Linear(in_features=240, out_features=480, bias=False)
                  (key): Linear(in_features=240, out_features=480, bias=False)
                  (value): Linear(in_features=240, out_features=480, bias=False)
                  (to_out): Sequential(
                    (0): Linear(in_features=480, out_features=240, bias=True)
                    (1): Dropout(p=0.0, inplace=False)
                  )
                )
              )
              (1): LayerNormBlock(
                (norm): LayerNorm((240,), eps=1e-06, elementwise_affine=True)
                (dropout): Dropout(p=0.0, inplace=False)
                (fn): MeanShiftAttention(
                  (attn_prob): Softmax(dim=-1)
                  (query): Linear(in_features=240, out_features=480, bias=False)
                  (key): Linear(in_features=240, out_features=480, bias=False)
                  (value): Linear(in_features=240, out_features=480, bias=False)
                  (to_out): Sequential(
                    (0): Linear(in_features=480, out_features=240, bias=True)
                    (1): Dropout(p=0.0, inplace=False)
                  )
                )
              )
              (2): LayerNormBlock(
                (norm): LayerNorm((240,), eps=1e-06, elementwise_affine=True)
                (dropout): Dropout(p=0.0, inplace=False)
                (fn): FeedForward(
                  (net): Sequential(
                    (0): Linear(in_features=240, out_features=640, bias=True)
                    (1): GELU(approximate=none)
                    (2): Dropout(p=0.0, inplace=False)
                    (3): Linear(in_features=640, out_features=240, bias=True)
                    (4): Dropout(p=0.0, inplace=False)
                  )
                )
              )
            )
            (1): ModuleList(
              (0): LayerNormBlock(
                (norm): LayerNorm((240,), eps=1e-06, elementwise_affine=True)
                (dropout): Dropout(p=0.0, inplace=False)
                (fn): MeanShiftAttention(
                  (attn_prob): Softmax(dim=-1)
                  (query): Linear(in_features=240, out_features=480, bias=False)
                  (key): Linear(in_features=240, out_features=480, bias=False)
                  (value): Linear(in_features=240, out_features=480, bias=False)
                  (to_out): Sequential(
                    (0): Linear(in_features=480, out_features=240, bias=True)
                    (1): Dropout(p=0.0, inplace=False)
                  )
                )
              )
              (1): LayerNormBlock(
                (norm): LayerNorm((240,), eps=1e-06, elementwise_affine=True)
                (dropout): Dropout(p=0.0, inplace=False)
                (fn): MeanShiftAttention(
                  (attn_prob): Softmax(dim=-1)
                  (query): Linear(in_features=240, out_features=480, bias=False)
                  (key): Linear(in_features=240, out_features=480, bias=False)
                  (value): Linear(in_features=240, out_features=480, bias=False)
                  (to_out): Sequential(
                    (0): Linear(in_features=480, out_features=240, bias=True)
                    (1): Dropout(p=0.0, inplace=False)
                  )
                )
              )
              (2): LayerNormBlock(
                (norm): LayerNorm((240,), eps=1e-06, elementwise_affine=True)
                (dropout): Dropout(p=0.0, inplace=False)
                (fn): FeedForward(
                  (net): Sequential(
                    (0): Linear(in_features=240, out_features=640, bias=True)
                    (1): GELU(approximate=none)
                    (2): Dropout(p=0.0, inplace=False)
                    (3): Linear(in_features=640, out_features=240, bias=True)
                    (4): Dropout(p=0.0, inplace=False)
                  )
                )
              )
            )
          )
        )
      )
      (layer_1): VQFusion(
        (input_proj): Sequential(
          (0): LayerNorm()
          (1): Conv2d(768, 240, kernel_size=(1, 1), stride=(1, 1))
        )
        (cross_attn): MeanShiftTransformer(
          (layers): ModuleList(
            (0): ModuleList(
              (0): LayerNormBlock(
                (norm): LayerNorm((240,), eps=1e-06, elementwise_affine=True)
                (dropout): Dropout(p=0.0, inplace=False)
                (fn): MeanShiftAttention(
                  (attn_prob): Softmax(dim=-1)
                  (query): Linear(in_features=240, out_features=480, bias=False)
                  (key): Linear(in_features=240, out_features=480, bias=False)
                  (value): Linear(in_features=240, out_features=480, bias=False)
                  (to_out): Sequential(
                    (0): Linear(in_features=480, out_features=240, bias=True)
                    (1): Dropout(p=0.0, inplace=False)
                  )
                )
              )
              (1): LayerNormBlock(
                (norm): LayerNorm((240,), eps=1e-06, elementwise_affine=True)
                (dropout): Dropout(p=0.0, inplace=False)
                (fn): MeanShiftAttention(
                  (attn_prob): Softmax(dim=-1)
                  (query): Linear(in_features=240, out_features=480, bias=False)
                  (key): Linear(in_features=240, out_features=480, bias=False)
                  (value): Linear(in_features=240, out_features=480, bias=False)
                  (to_out): Sequential(
                    (0): Linear(in_features=480, out_features=240, bias=True)
                    (1): Dropout(p=0.0, inplace=False)
                  )
                )
              )
              (2): LayerNormBlock(
                (norm): LayerNorm((240,), eps=1e-06, elementwise_affine=True)
                (dropout): Dropout(p=0.0, inplace=False)
                (fn): FeedForward(
                  (net): Sequential(
                    (0): Linear(in_features=240, out_features=640, bias=True)
                    (1): GELU(approximate=none)
                    (2): Dropout(p=0.0, inplace=False)
                    (3): Linear(in_features=640, out_features=240, bias=True)
                    (4): Dropout(p=0.0, inplace=False)
                  )
                )
              )
            )
            (1): ModuleList(
              (0): LayerNormBlock(
                (norm): LayerNorm((240,), eps=1e-06, elementwise_affine=True)
                (dropout): Dropout(p=0.0, inplace=False)
                (fn): MeanShiftAttention(
                  (attn_prob): Softmax(dim=-1)
                  (query): Linear(in_features=240, out_features=480, bias=False)
                  (key): Linear(in_features=240, out_features=480, bias=False)
                  (value): Linear(in_features=240, out_features=480, bias=False)
                  (to_out): Sequential(
                    (0): Linear(in_features=480, out_features=240, bias=True)
                    (1): Dropout(p=0.0, inplace=False)
                  )
                )
              )
              (1): LayerNormBlock(
                (norm): LayerNorm((240,), eps=1e-06, elementwise_affine=True)
                (dropout): Dropout(p=0.0, inplace=False)
                (fn): MeanShiftAttention(
                  (attn_prob): Softmax(dim=-1)
                  (query): Linear(in_features=240, out_features=480, bias=False)
                  (key): Linear(in_features=240, out_features=480, bias=False)
                  (value): Linear(in_features=240, out_features=480, bias=False)
                  (to_out): Sequential(
                    (0): Linear(in_features=480, out_features=240, bias=True)
                    (1): Dropout(p=0.0, inplace=False)
                  )
                )
              )
              (2): LayerNormBlock(
                (norm): LayerNorm((240,), eps=1e-06, elementwise_affine=True)
                (dropout): Dropout(p=0.0, inplace=False)
                (fn): FeedForward(
                  (net): Sequential(
                    (0): Linear(in_features=240, out_features=640, bias=True)
                    (1): GELU(approximate=none)
                    (2): Dropout(p=0.0, inplace=False)
                    (3): Linear(in_features=640, out_features=240, bias=True)
                    (4): Dropout(p=0.0, inplace=False)
                  )
                )
              )
            )
          )
        )
      )
      (layer_2): VQFusion(
        (input_proj): Sequential(
          (0): LayerNorm()
          (1): Conv2d(768, 240, kernel_size=(1, 1), stride=(1, 1))
        )
        (cross_attn): MeanShiftTransformer(
          (layers): ModuleList(
            (0): ModuleList(
              (0): LayerNormBlock(
                (norm): LayerNorm((240,), eps=1e-06, elementwise_affine=True)
                (dropout): Dropout(p=0.0, inplace=False)
                (fn): MeanShiftAttention(
                  (attn_prob): Softmax(dim=-1)
                  (query): Linear(in_features=240, out_features=480, bias=False)
                  (key): Linear(in_features=240, out_features=480, bias=False)
                  (value): Linear(in_features=240, out_features=480, bias=False)
                  (to_out): Sequential(
                    (0): Linear(in_features=480, out_features=240, bias=True)
                    (1): Dropout(p=0.0, inplace=False)
                  )
                )
              )
              (1): LayerNormBlock(
                (norm): LayerNorm((240,), eps=1e-06, elementwise_affine=True)
                (dropout): Dropout(p=0.0, inplace=False)
                (fn): MeanShiftAttention(
                  (attn_prob): Softmax(dim=-1)
                  (query): Linear(in_features=240, out_features=480, bias=False)
                  (key): Linear(in_features=240, out_features=480, bias=False)
                  (value): Linear(in_features=240, out_features=480, bias=False)
                  (to_out): Sequential(
                    (0): Linear(in_features=480, out_features=240, bias=True)
                    (1): Dropout(p=0.0, inplace=False)
                  )
                )
              )
              (2): LayerNormBlock(
                (norm): LayerNorm((240,), eps=1e-06, elementwise_affine=True)
                (dropout): Dropout(p=0.0, inplace=False)
                (fn): FeedForward(
                  (net): Sequential(
                    (0): Linear(in_features=240, out_features=640, bias=True)
                    (1): GELU(approximate=none)
                    (2): Dropout(p=0.0, inplace=False)
                    (3): Linear(in_features=640, out_features=240, bias=True)
                    (4): Dropout(p=0.0, inplace=False)
                  )
                )
              )
            )
            (1): ModuleList(
              (0): LayerNormBlock(
                (norm): LayerNorm((240,), eps=1e-06, elementwise_affine=True)
                (dropout): Dropout(p=0.0, inplace=False)
                (fn): MeanShiftAttention(
                  (attn_prob): Softmax(dim=-1)
                  (query): Linear(in_features=240, out_features=480, bias=False)
                  (key): Linear(in_features=240, out_features=480, bias=False)
                  (value): Linear(in_features=240, out_features=480, bias=False)
                  (to_out): Sequential(
                    (0): Linear(in_features=480, out_features=240, bias=True)
                    (1): Dropout(p=0.0, inplace=False)
                  )
                )
              )
              (1): LayerNormBlock(
                (norm): LayerNorm((240,), eps=1e-06, elementwise_affine=True)
                (dropout): Dropout(p=0.0, inplace=False)
                (fn): MeanShiftAttention(
                  (attn_prob): Softmax(dim=-1)
                  (query): Linear(in_features=240, out_features=480, bias=False)
                  (key): Linear(in_features=240, out_features=480, bias=False)
                  (value): Linear(in_features=240, out_features=480, bias=False)
                  (to_out): Sequential(
                    (0): Linear(in_features=480, out_features=240, bias=True)
                    (1): Dropout(p=0.0, inplace=False)
                  )
                )
              )
              (2): LayerNormBlock(
                (norm): LayerNorm((240,), eps=1e-06, elementwise_affine=True)
                (dropout): Dropout(p=0.0, inplace=False)
                (fn): FeedForward(
                  (net): Sequential(
                    (0): Linear(in_features=240, out_features=640, bias=True)
                    (1): GELU(approximate=none)
                    (2): Dropout(p=0.0, inplace=False)
                    (3): Linear(in_features=640, out_features=240, bias=True)
                    (4): Dropout(p=0.0, inplace=False)
                  )
                )
              )
            )
          )
        )
      )
      (layer_3): VQFusion(
        (input_proj): Sequential(
          (0): LayerNorm()
          (1): Conv2d(768, 240, kernel_size=(1, 1), stride=(1, 1))
        )
        (cross_attn): MeanShiftTransformer(
          (layers): ModuleList(
            (0): ModuleList(
              (0): LayerNormBlock(
                (norm): LayerNorm((240,), eps=1e-06, elementwise_affine=True)
                (dropout): Dropout(p=0.0, inplace=False)
                (fn): MeanShiftAttention(
                  (attn_prob): Softmax(dim=-1)
                  (query): Linear(in_features=240, out_features=480, bias=False)
                  (key): Linear(in_features=240, out_features=480, bias=False)
                  (value): Linear(in_features=240, out_features=480, bias=False)
                  (to_out): Sequential(
                    (0): Linear(in_features=480, out_features=240, bias=True)
                    (1): Dropout(p=0.0, inplace=False)
                  )
                )
              )
              (1): LayerNormBlock(
                (norm): LayerNorm((240,), eps=1e-06, elementwise_affine=True)
                (dropout): Dropout(p=0.0, inplace=False)
                (fn): MeanShiftAttention(
                  (attn_prob): Softmax(dim=-1)
                  (query): Linear(in_features=240, out_features=480, bias=False)
                  (key): Linear(in_features=240, out_features=480, bias=False)
                  (value): Linear(in_features=240, out_features=480, bias=False)
                  (to_out): Sequential(
                    (0): Linear(in_features=480, out_features=240, bias=True)
                    (1): Dropout(p=0.0, inplace=False)
                  )
                )
              )
              (2): LayerNormBlock(
                (norm): LayerNorm((240,), eps=1e-06, elementwise_affine=True)
                (dropout): Dropout(p=0.0, inplace=False)
                (fn): FeedForward(
                  (net): Sequential(
                    (0): Linear(in_features=240, out_features=640, bias=True)
                    (1): GELU(approximate=none)
                    (2): Dropout(p=0.0, inplace=False)
                    (3): Linear(in_features=640, out_features=240, bias=True)
                    (4): Dropout(p=0.0, inplace=False)
                  )
                )
              )
            )
            (1): ModuleList(
              (0): LayerNormBlock(
                (norm): LayerNorm((240,), eps=1e-06, elementwise_affine=True)
                (dropout): Dropout(p=0.0, inplace=False)
                (fn): MeanShiftAttention(
                  (attn_prob): Softmax(dim=-1)
                  (query): Linear(in_features=240, out_features=480, bias=False)
                  (key): Linear(in_features=240, out_features=480, bias=False)
                  (value): Linear(in_features=240, out_features=480, bias=False)
                  (to_out): Sequential(
                    (0): Linear(in_features=480, out_features=240, bias=True)
                    (1): Dropout(p=0.0, inplace=False)
                  )
                )
              )
              (1): LayerNormBlock(
                (norm): LayerNorm((240,), eps=1e-06, elementwise_affine=True)
                (dropout): Dropout(p=0.0, inplace=False)
                (fn): MeanShiftAttention(
                  (attn_prob): Softmax(dim=-1)
                  (query): Linear(in_features=240, out_features=480, bias=False)
                  (key): Linear(in_features=240, out_features=480, bias=False)
                  (value): Linear(in_features=240, out_features=480, bias=False)
                  (to_out): Sequential(
                    (0): Linear(in_features=480, out_features=240, bias=True)
                    (1): Dropout(p=0.0, inplace=False)
                  )
                )
              )
              (2): LayerNormBlock(
                (norm): LayerNorm((240,), eps=1e-06, elementwise_affine=True)
                (dropout): Dropout(p=0.0, inplace=False)
                (fn): FeedForward(
                  (net): Sequential(
                    (0): Linear(in_features=240, out_features=640, bias=True)
                    (1): GELU(approximate=none)
                    (2): Dropout(p=0.0, inplace=False)
                    (3): Linear(in_features=640, out_features=240, bias=True)
                    (4): Dropout(p=0.0, inplace=False)
                  )
                )
              )
            )
          )
        )
      )
    )
    (mask_decoder): MLPMaskDecoder(
      (query_mlp): MLP(
        (layers): ModuleList(
          (0): Linear(in_features=240, out_features=256, bias=True)
          (1): Linear(in_features=256, out_features=256, bias=True)
          (2): Linear(in_features=256, out_features=256, bias=True)
        )
      )
      (pix_mlp): MLP(
        (layers): ModuleList(
          (0): Conv2d(240, 256, kernel_size=(1, 1), stride=(1, 1))
          (1): Conv2d(256, 256, kernel_size=(1, 1), stride=(1, 1))
          (2): Conv2d(256, 256, kernel_size=(1, 1), stride=(1, 1))
        )
      )
      (attn_mlp): MLP(
        (layers): ModuleList(
          (0): Conv2d(240, 256, kernel_size=(1, 1), stride=(1, 1))
          (1): Conv2d(256, 256, kernel_size=(1, 1), stride=(1, 1))
          (2): Conv2d(256, 3072, kernel_size=(1, 1), stride=(1, 1))
        )
      )
      (bias_scaling): Linear(in_features=1, out_features=1, bias=True)
    )
  )
  (clip_visual_extractor): FeatureExtractor(
    (patchnorm_pre_ln): Identity()
    (conv1): Conv2d(3, 768, kernel_size=(16, 16), stride=(16, 16), bias=False)
    (patch_dropout): Identity()
    (ln_pre): LayerNorm((768,), eps=1e-05, elementwise_affine=True)
    (resblocks): ModuleList(
      (0): ResidualAttentionBlock(
        (ln_1): LayerNorm((768,), eps=1e-05, elementwise_affine=True)
        (attn): MultiheadAttention(
          (out_proj): NonDynamicallyQuantizableLinear(in_features=768, out_features=768, bias=True)
        )
        (ls_1): Identity()
        (ln_2): LayerNorm((768,), eps=1e-05, elementwise_affine=True)
        (mlp): Sequential(
          (c_fc): Linear(in_features=768, out_features=3072, bias=True)
          (gelu): QuickGELU()
          (c_proj): Linear(in_features=3072, out_features=768, bias=True)
        )
        (ls_2): Identity()
      )
      (1): ResidualAttentionBlock(
        (ln_1): LayerNorm((768,), eps=1e-05, elementwise_affine=True)
        (attn): MultiheadAttention(
          (out_proj): NonDynamicallyQuantizableLinear(in_features=768, out_features=768, bias=True)
        )
        (ls_1): Identity()
        (ln_2): LayerNorm((768,), eps=1e-05, elementwise_affine=True)
        (mlp): Sequential(
          (c_fc): Linear(in_features=768, out_features=3072, bias=True)
          (gelu): QuickGELU()
          (c_proj): Linear(in_features=3072, out_features=768, bias=True)
        )
        (ls_2): Identity()
      )
      (2): ResidualAttentionBlock(
        (ln_1): LayerNorm((768,), eps=1e-05, elementwise_affine=True)
        (attn): MultiheadAttention(
          (out_proj): NonDynamicallyQuantizableLinear(in_features=768, out_features=768, bias=True)
        )
        (ls_1): Identity()
        (ln_2): LayerNorm((768,), eps=1e-05, elementwise_affine=True)
        (mlp): Sequential(
          (c_fc): Linear(in_features=768, out_features=3072, bias=True)
          (gelu): QuickGELU()
          (c_proj): Linear(in_features=3072, out_features=768, bias=True)
        )
        (ls_2): Identity()
      )
      (3): ResidualAttentionBlock(
        (ln_1): LayerNorm((768,), eps=1e-05, elementwise_affine=True)
        (attn): MultiheadAttention(
          (out_proj): NonDynamicallyQuantizableLinear(in_features=768, out_features=768, bias=True)
        )
        (ls_1): Identity()
        (ln_2): LayerNorm((768,), eps=1e-05, elementwise_affine=True)
        (mlp): Sequential(
          (c_fc): Linear(in_features=768, out_features=3072, bias=True)
          (gelu): QuickGELU()
          (c_proj): Linear(in_features=3072, out_features=768, bias=True)
        )
        (ls_2): Identity()
      )
      (4): ResidualAttentionBlock(
        (ln_1): LayerNorm((768,), eps=1e-05, elementwise_affine=True)
        (attn): MultiheadAttention(
          (out_proj): NonDynamicallyQuantizableLinear(in_features=768, out_features=768, bias=True)
        )
        (ls_1): Identity()
        (ln_2): LayerNorm((768,), eps=1e-05, elementwise_affine=True)
        (mlp): Sequential(
          (c_fc): Linear(in_features=768, out_features=3072, bias=True)
          (gelu): QuickGELU()
          (c_proj): Linear(in_features=3072, out_features=768, bias=True)
        )
        (ls_2): Identity()
      )
      (5): ResidualAttentionBlock(
        (ln_1): LayerNorm((768,), eps=1e-05, elementwise_affine=True)
        (attn): MultiheadAttention(
          (out_proj): NonDynamicallyQuantizableLinear(in_features=768, out_features=768, bias=True)
        )
        (ls_1): Identity()
        (ln_2): LayerNorm((768,), eps=1e-05, elementwise_affine=True)
        (mlp): Sequential(
          (c_fc): Linear(in_features=768, out_features=3072, bias=True)
          (gelu): QuickGELU()
          (c_proj): Linear(in_features=3072, out_features=768, bias=True)
        )
        (ls_2): Identity()
      )
      (6): ResidualAttentionBlock(
        (ln_1): LayerNorm((768,), eps=1e-05, elementwise_affine=True)
        (attn): MultiheadAttention(
          (out_proj): NonDynamicallyQuantizableLinear(in_features=768, out_features=768, bias=True)
        )
        (ls_1): Identity()
        (ln_2): LayerNorm((768,), eps=1e-05, elementwise_affine=True)
        (mlp): Sequential(
          (c_fc): Linear(in_features=768, out_features=3072, bias=True)
          (gelu): QuickGELU()
          (c_proj): Linear(in_features=3072, out_features=768, bias=True)
        )
        (ls_2): Identity()
      )
      (7): ResidualAttentionBlock(
        (ln_1): LayerNorm((768,), eps=1e-05, elementwise_affine=True)
        (attn): MultiheadAttention(
          (out_proj): NonDynamicallyQuantizableLinear(in_features=768, out_features=768, bias=True)
        )
        (ls_1): Identity()
        (ln_2): LayerNorm((768,), eps=1e-05, elementwise_affine=True)
        (mlp): Sequential(
          (c_fc): Linear(in_features=768, out_features=3072, bias=True)
          (gelu): QuickGELU()
          (c_proj): Linear(in_features=3072, out_features=768, bias=True)
        )
        (ls_2): Identity()
      )
      (8): ResidualAttentionBlock(
        (ln_1): LayerNorm((768,), eps=1e-05, elementwise_affine=True)
        (attn): MultiheadAttention(
          (out_proj): NonDynamicallyQuantizableLinear(in_features=768, out_features=768, bias=True)
        )
        (ls_1): Identity()
        (ln_2): LayerNorm((768,), eps=1e-05, elementwise_affine=True)
        (mlp): Sequential(
          (c_fc): Linear(in_features=768, out_features=3072, bias=True)
          (gelu): QuickGELU()
          (c_proj): Linear(in_features=3072, out_features=768, bias=True)
        )
        (ls_2): Identity()
      )
    )
  )
  (clip_rec_head): RecWithAttnbiasHead(
    (resblocks): ModuleList(
      (0): ResidualAttentionBlock(
        (ln_1): LayerNorm((768,), eps=1e-05, elementwise_affine=True)
        (attn): MultiheadAttention(
          (out_proj): NonDynamicallyQuantizableLinear(in_features=768, out_features=768, bias=True)
        )
        (ls_1): Identity()
        (ln_2): LayerNorm((768,), eps=1e-05, elementwise_affine=True)
        (mlp): Sequential(
          (c_fc): Linear(in_features=768, out_features=3072, bias=True)
          (gelu): QuickGELU()
          (c_proj): Linear(in_features=3072, out_features=768, bias=True)
        )
        (ls_2): Identity()
      )
      (1): ResidualAttentionBlock(
        (ln_1): LayerNorm((768,), eps=1e-05, elementwise_affine=True)
        (attn): MultiheadAttention(
          (out_proj): NonDynamicallyQuantizableLinear(in_features=768, out_features=768, bias=True)
        )
        (ls_1): Identity()
        (ln_2): LayerNorm((768,), eps=1e-05, elementwise_affine=True)
        (mlp): Sequential(
          (c_fc): Linear(in_features=768, out_features=3072, bias=True)
          (gelu): QuickGELU()
          (c_proj): Linear(in_features=3072, out_features=768, bias=True)
        )
        (ls_2): Identity()
      )
      (2): ResidualAttentionBlock(
        (ln_1): LayerNorm((768,), eps=1e-05, elementwise_affine=True)
        (attn): MultiheadAttention(
          (out_proj): NonDynamicallyQuantizableLinear(in_features=768, out_features=768, bias=True)
        )
        (ls_1): Identity()
        (ln_2): LayerNorm((768,), eps=1e-05, elementwise_affine=True)
        (mlp): Sequential(
          (c_fc): Linear(in_features=768, out_features=3072, bias=True)
          (gelu): QuickGELU()
          (c_proj): Linear(in_features=3072, out_features=768, bias=True)
        )
        (ls_2): Identity()
      )
    )
    (ln_post): LayerNorm((768,), eps=1e-05, elementwise_affine=True)
  )
  (ov_classifier): LearnableBgOvClassifier(
    (transformer): Transformer(
      (resblocks): ModuleList(
        (0): ResidualAttentionBlock(
          (ln_1): LayerNorm((512,), eps=1e-05, elementwise_affine=True)
          (attn): MultiheadAttention(
            (out_proj): NonDynamicallyQuantizableLinear(in_features=512, out_features=512, bias=True)
          )
          (ls_1): Identity()
          (ln_2): LayerNorm((512,), eps=1e-05, elementwise_affine=True)
          (mlp): Sequential(
            (c_fc): Linear(in_features=512, out_features=2048, bias=True)
            (gelu): QuickGELU()
            (c_proj): Linear(in_features=2048, out_features=512, bias=True)
          )
          (ls_2): Identity()
        )
        (1): ResidualAttentionBlock(
          (ln_1): LayerNorm((512,), eps=1e-05, elementwise_affine=True)
          (attn): MultiheadAttention(
            (out_proj): NonDynamicallyQuantizableLinear(in_features=512, out_features=512, bias=True)
          )
          (ls_1): Identity()
          (ln_2): LayerNorm((512,), eps=1e-05, elementwise_affine=True)
          (mlp): Sequential(
            (c_fc): Linear(in_features=512, out_features=2048, bias=True)
            (gelu): QuickGELU()
            (c_proj): Linear(in_features=2048, out_features=512, bias=True)
          )
          (ls_2): Identity()
        )
        (2): ResidualAttentionBlock(
          (ln_1): LayerNorm((512,), eps=1e-05, elementwise_affine=True)
          (attn): MultiheadAttention(
            (out_proj): NonDynamicallyQuantizableLinear(in_features=512, out_features=512, bias=True)
          )
          (ls_1): Identity()
          (ln_2): LayerNorm((512,), eps=1e-05, elementwise_affine=True)
          (mlp): Sequential(
            (c_fc): Linear(in_features=512, out_features=2048, bias=True)
            (gelu): QuickGELU()
            (c_proj): Linear(in_features=2048, out_features=512, bias=True)
          )
          (ls_2): Identity()
        )
        (3): ResidualAttentionBlock(
          (ln_1): LayerNorm((512,), eps=1e-05, elementwise_affine=True)
          (attn): MultiheadAttention(
            (out_proj): NonDynamicallyQuantizableLinear(in_features=512, out_features=512, bias=True)
          )
          (ls_1): Identity()
          (ln_2): LayerNorm((512,), eps=1e-05, elementwise_affine=True)
          (mlp): Sequential(
            (c_fc): Linear(in_features=512, out_features=2048, bias=True)
            (gelu): QuickGELU()
            (c_proj): Linear(in_features=2048, out_features=512, bias=True)
          )
          (ls_2): Identity()
        )
        (4): ResidualAttentionBlock(
          (ln_1): LayerNorm((512,), eps=1e-05, elementwise_affine=True)
          (attn): MultiheadAttention(
            (out_proj): NonDynamicallyQuantizableLinear(in_features=512, out_features=512, bias=True)
          )
          (ls_1): Identity()
          (ln_2): LayerNorm((512,), eps=1e-05, elementwise_affine=True)
          (mlp): Sequential(
            (c_fc): Linear(in_features=512, out_features=2048, bias=True)
            (gelu): QuickGELU()
            (c_proj): Linear(in_features=2048, out_features=512, bias=True)
          )
          (ls_2): Identity()
        )
        (5): ResidualAttentionBlock(
          (ln_1): LayerNorm((512,), eps=1e-05, elementwise_affine=True)
          (attn): MultiheadAttention(
            (out_proj): NonDynamicallyQuantizableLinear(in_features=512, out_features=512, bias=True)
          )
          (ls_1): Identity()
          (ln_2): LayerNorm((512,), eps=1e-05, elementwise_affine=True)
          (mlp): Sequential(
            (c_fc): Linear(in_features=512, out_features=2048, bias=True)
            (gelu): QuickGELU()
            (c_proj): Linear(in_features=2048, out_features=512, bias=True)
          )
          (ls_2): Identity()
        )
        (6): ResidualAttentionBlock(
          (ln_1): LayerNorm((512,), eps=1e-05, elementwise_affine=True)
          (attn): MultiheadAttention(
            (out_proj): NonDynamicallyQuantizableLinear(in_features=512, out_features=512, bias=True)
          )
          (ls_1): Identity()
          (ln_2): LayerNorm((512,), eps=1e-05, elementwise_affine=True)
          (mlp): Sequential(
            (c_fc): Linear(in_features=512, out_features=2048, bias=True)
            (gelu): QuickGELU()
            (c_proj): Linear(in_features=2048, out_features=512, bias=True)
          )
          (ls_2): Identity()
        )
        (7): ResidualAttentionBlock(
          (ln_1): LayerNorm((512,), eps=1e-05, elementwise_affine=True)
          (attn): MultiheadAttention(
            (out_proj): NonDynamicallyQuantizableLinear(in_features=512, out_features=512, bias=True)
          )
          (ls_1): Identity()
          (ln_2): LayerNorm((512,), eps=1e-05, elementwise_affine=True)
          (mlp): Sequential(
            (c_fc): Linear(in_features=512, out_features=2048, bias=True)
            (gelu): QuickGELU()
            (c_proj): Linear(in_features=2048, out_features=512, bias=True)
          )
          (ls_2): Identity()
        )
        (8): ResidualAttentionBlock(
          (ln_1): LayerNorm((512,), eps=1e-05, elementwise_affine=True)
          (attn): MultiheadAttention(
            (out_proj): NonDynamicallyQuantizableLinear(in_features=512, out_features=512, bias=True)
          )
          (ls_1): Identity()
          (ln_2): LayerNorm((512,), eps=1e-05, elementwise_affine=True)
          (mlp): Sequential(
            (c_fc): Linear(in_features=512, out_features=2048, bias=True)
            (gelu): QuickGELU()
            (c_proj): Linear(in_features=2048, out_features=512, bias=True)
          )
          (ls_2): Identity()
        )
        (9): ResidualAttentionBlock(
          (ln_1): LayerNorm((512,), eps=1e-05, elementwise_affine=True)
          (attn): MultiheadAttention(
            (out_proj): NonDynamicallyQuantizableLinear(in_features=512, out_features=512, bias=True)
          )
          (ls_1): Identity()
          (ln_2): LayerNorm((512,), eps=1e-05, elementwise_affine=True)
          (mlp): Sequential(
            (c_fc): Linear(in_features=512, out_features=2048, bias=True)
            (gelu): QuickGELU()
            (c_proj): Linear(in_features=2048, out_features=512, bias=True)
          )
          (ls_2): Identity()
        )
        (10): ResidualAttentionBlock(
          (ln_1): LayerNorm((512,), eps=1e-05, elementwise_affine=True)
          (attn): MultiheadAttention(
            (out_proj): NonDynamicallyQuantizableLinear(in_features=512, out_features=512, bias=True)
          )
          (ls_1): Identity()
          (ln_2): LayerNorm((512,), eps=1e-05, elementwise_affine=True)
          (mlp): Sequential(
            (c_fc): Linear(in_features=512, out_features=2048, bias=True)
            (gelu): QuickGELU()
            (c_proj): Linear(in_features=2048, out_features=512, bias=True)
          )
          (ls_2): Identity()
        )
        (11): ResidualAttentionBlock(
          (ln_1): LayerNorm((512,), eps=1e-05, elementwise_affine=True)
          (attn): MultiheadAttention(
            (out_proj): NonDynamicallyQuantizableLinear(in_features=512, out_features=512, bias=True)
          )
          (ls_1): Identity()
          (ln_2): LayerNorm((512,), eps=1e-05, elementwise_affine=True)
          (mlp): Sequential(
            (c_fc): Linear(in_features=512, out_features=2048, bias=True)
            (gelu): QuickGELU()
            (c_proj): Linear(in_features=2048, out_features=512, bias=True)
          )
          (ls_2): Identity()
        )
      )
    )
    (token_embedding): Embedding(49408, 512)
    (ln_final): LayerNorm((512,), eps=1e-05, elementwise_affine=True)
  )
)
[12/03 01:52:30 san]: Optimizer Info:
+-------------------------------------------------------------------------------------+---------------+--------+--------+
|                                     Param Name                                      |  Param Shape  |   Lr   |   Wd   |
+=====================================================================================+===============+========+========+
…
